…
Xtest 30% [Loss, Accuracy]: 0.29739654064178467 0.9162221550941467

Model: "deeprun"
__________________________________________________________________________________________________
Layer (type)                    Output Shape         Param #     Connected to                     
==================================================================================================
input_1 (InputLayer)            [(None, 25, 25, 4)]  0                                            
__________________________________________________________________________________________________
conv2d (Conv2D)                 (None, 19, 19, 512)  100864      input_1[0][0]                    
__________________________________________________________________________________________________
batch_normalization (BatchNorma (None, 19, 19, 512)  2048        conv2d[0][0]                     
__________________________________________________________________________________________________
conv2d_1 (Conv2D)               (None, 17, 17, 256)  1179904     batch_normalization[0][0]        
__________________________________________________________________________________________________
batch_normalization_1 (BatchNor (None, 17, 17, 256)  1024        conv2d_1[0][0]                   
__________________________________________________________________________________________________
conv2d_2 (Conv2D)               (None, 17, 17, 170)  391850      batch_normalization_1[0][0]      
__________________________________________________________________________________________________
concatenate (Concatenate)       (None, 17, 17, 426)  0           conv2d_1[0][0]                   
                                                                 conv2d_2[0][0]                   
__________________________________________________________________________________________________
conv2d_3 (Conv2D)               (None, 17, 17, 128)  54656       concatenate[0][0]                
__________________________________________________________________________________________________
batch_normalization_2 (BatchNor (None, 17, 17, 128)  512         conv2d_3[0][0]                   
__________________________________________________________________________________________________
global_average_pooling2d (Globa (None, 128)          0           batch_normalization_2[0][0]      
__________________________________________________________________________________________________
dense (Dense)                   (None, 100)          12900       global_average_pooling2d[0][0]   
__________________________________________________________________________________________________
dense_1 (Dense)                 (None, 27)           2727        dense[0][0]                      
==================================================================================================
Total params: 1,746,485
Trainable params: 1,744,693
Non-trainable params: 1,792
__________________________________________________________________________________________________
